…
2019-04-15 12:25:05.689861: I tensorflow/core/platform/cpu_feature_guard.cc:141] Your CPU supports instructions that this TensorFlow binary was not compiled to use: SSE4.1 SSE4.2 AVX AVX2 FMA
2019-04-15 12:25:05.692251: I tensorflow/core/common_runtime/process_util.cc:69] Creating new thread pool with default inter op setting: 2. Tune using inter_op_parallelism_threads for best performance.
_________________________________________________________________
Layer (type)                 Output Shape              Param #   
=================================================================
conv1 (BinaryConv2D)         (None, 128, 28, 28)       1152      
_________________________________________________________________
bn1 (BatchNormalization)     (None, 128, 28, 28)       512       
_________________________________________________________________
act1 (Activation)            (None, 128, 28, 28)       0         
_________________________________________________________________
conv2 (BinaryConv2D)         (None, 128, 28, 28)       147456    
_________________________________________________________________
pool2 (MaxPooling2D)         (None, 128, 14, 14)       0         
_________________________________________________________________
bn2 (BatchNormalization)     (None, 128, 14, 14)       512       
_________________________________________________________________
act2 (Activation)            (None, 128, 14, 14)       0         
_________________________________________________________________
conv3 (BinaryConv2D)         (None, 256, 14, 14)       294912    
_________________________________________________________________
bn3 (BatchNormalization)     (None, 256, 14, 14)       1024      
_________________________________________________________________
act3 (Activation)            (None, 256, 14, 14)       0         
_________________________________________________________________
conv4 (BinaryConv2D)         (None, 256, 14, 14)       589824    
_________________________________________________________________
pool4 (MaxPooling2D)         (None, 256, 7, 7)         0         
_________________________________________________________________
bn4 (BatchNormalization)     (None, 256, 7, 7)         1024      
_________________________________________________________________
act4 (Activation)            (None, 256, 7, 7)         0         
_________________________________________________________________
flatten_1 (Flatten)          (None, 12544)             0         
_________________________________________________________________
dense5 (BinaryDense)         (None, 1024)              12845056  
_________________________________________________________________
bn5 (BatchNormalization)     (None, 1024)              4096      
_________________________________________________________________
act5 (Activation)            (None, 1024)              0         
_________________________________________________________________
dense6 (BinaryDense)         (None, 10)                10240     
_________________________________________________________________
bn6 (BatchNormalization)     (None, 10)                40        
=================================================================
Total params: 13,895,848
Trainable params: 13,892,244
Non-trainable params: 3,604
_________________________________________________________________
Train on 60000 samples, validate on 10000 samples
Epoch 1/20
60000/60000 [==============================] - 3425s 57ms/step - loss: 0.3646 - acc: 0.8709 - val_loss: 0.0878 - val_acc: 0.9427
…
